models/MNIST_HWDR-feedforward.pth (torch, 56143 bytes, 6 tensors)

linear1.weight f4 [16, 784]
00000000: 003c 0c3b 5386 ddbb f7e0 d43c 9351 853c
00000010: e338 05bd f148 b93c b3dc 0bbc 4a5e 8e39
00000020: 2c49 a5bc 3ecc 913c 13d9 af3c b76a 803b
00000030: f787 e1bc 80d7 2c3c 530a ea3c 3ea9 99bc
00000040: f14d e53c 876a 043d 57b3 a4bc 4b0f 103d
00000050: 1a0c c5bc c01f 033d 9ca5 51bc 1ccf a63c
00000060: cf65 11bd f8d9 5cbc a184 68bc 6c30 0dbd
00000070: fc23 71bc 771d c83c 73bc 79bc 45f3 0f3d
00000080: 5eb9 1abb d792 f43c 5a7a debc 0730 a6bc
00000090: 0807 bcbb 55f8 8c3c 1ed1 f43c 5c6a 053d
000000a0: a140 c43b 5cb7 ceba 5ac2 053c f33c 353c
000000b0: fff0 d8bc c84c aabb 3713 7ebc ebfa d63c
000000c0: cf12 e2bc 6eb6 91bc fd95 08bd 593b b33c
000000d0: c5f2 643c 48b5 04bd 6543 e8bb 1c8a 38bc
000000e0: 6796 8ebc e37b d9bc e074 863c 0fb4 083b
000000f0: cb48 e53c 51f5 973c 17fc d9bc 3de2 f4ba
00000100: 5c47 8cbd 2104 6f3c 3bc8 303d 2a59 c9bc
00000110: 4904 95bd 7860 aabd ce5b babc 150e e2bc
00000120: a444 aebd 4168 7ebd ecf7 9b3b 9ae7 d33c
00000130: 4374 8e3c b319 bfbc f0ce da3c 0834 b5bc
00000140: cda0 e33c 7b58 d3bc 036d 89bc bc00 d43c
00000150: 6e85 50ba f3ef 063c d9cc 7bbc f04b 1d3c
00000160: d31a 0d3d a2a9 bd3c c70d dfbc 4e32 303d
00000170: df76 85ba cf85 b23c 05ba 223e fc2f 5fbd
00000180: 5c17 28bd fd5e 30bd 80ef c23c 6763 0a3c
00000190: 6c31 183d cb2b 86be 1eea febd 0d3d 34be
000001a0: 51d1 bfbc 8e65 f33c 4cd1 343d 2de6 083c
000001b0: 44f4 733d 9e78 e53d ef84 b13c 13f7 fabb
000001c0: 47f3 8fbc 5e95 4cba c07a 1f3c 983d 04bd
000001d0: deec cb3b 8745 f33c 3271 9f3d 5026 07bd
000001e0: aa21 99be 59ab 78be dfba 71bd 727c 303e
000001f0: 1ca1 1bbc 91c8 073d 16f6 7bbe 6b9a e03d
00000200: 07b9 8eba 05d9 9abe b576 0fbe fa59 03be
00000210: 7fb4 9ebd 8f25 633d 1188 1bbd 47f5 263d
00000220: c0df 5f3e c58a 123e 0db3 4b3c e04c 7f3b
00000230: b754 b53c a5ac 303b 818c 8abc 72a8 b43b
00000240: 041b 0e3c 9704 0a3e cf78 423e 49f2 babd
00000250: 1ba3 afbd d9f4 ef3c ca3c 96bd ef94 67be
00000260: a10a 88be 9920 c2be ce53 05be 8408 b5bc
00000270: 98cf 43be f8e7 43be 6505 f6bd 8d28 89bd
00000280: 094d 68bd 77e9 b6bd 380c b63c f2d6 103d
00000290: 70a4 e33d 5e7c 213e 754d 373a ad48 84bc
000002a0: 3fd0 04bd c5af 883b 8388 ad3b d672 f43c
000002b0: 6010 d2bc 03ef 10be 0ca5 8a3d 89ff 52bd
000002c0: 09ce 333e 4b8f 9bbc a81a 933e e678 45be
000002d0: cf9c f03c b0a4 0c3c 2536 d13c 2dfb 0abe
000002e0: bcbb 1d3b 05ad 823e 6258 453e 5ad9 4abd
000002f0: f157 173e 41fc 40bd 50fd 23be 1872 66be
00000300: e7b7 2f3e a3b0 693e 3a4a 553d 1a82 bdbc
00000310: a82a cdbb ac36 633c cb10 043d cc0b 593c
00000320: 8dfb 72bd f500 90bd b769 e23c 885b 173d
00000330: 829d cf3e 3e48 7c3e 585e c73e 1ac2 6e3e
00000340: a7b9 c83e 3c10 553d e2df 6cbc 3f46 673c
00000350: 3531 7b3d 9ef8 253e cbc8 c73e 6695 393e
00000360: be7f ef3e e1c9 8f3d d2a6 e53d 945b 6abb
00000370: 968b 5f3e 92cd f63d f74e bf3c 6469 c5bc
00000380: a18d a83b 2a71 03bc dc94 1abc 4ed1 0839
00000390: 1d77 7cbd 13da da3c 07e5 ddbd 6e10 913e
000003a0: c838 103e 09f7 973e 0287 473e 11ce 143e
000003b0: 9c9f 313e 4967 673e dbe9 c73d 989d 9e3e
000003c0: bf5b 4b3e 37ce 3a3e 7c24 e83d e665 c23d
000003d0: f809 9b3d 21d2 09be e59a 693e 53e8 683e
000003e0: 6708 203e eeee c33c a8f3 d53c 3f49 113c
000003f0: 458b 0c3d b164 173c 70fd 403d 2237 773c
0.0021398067 -0.0067603975 0.025986178 0.01627425 -0.032524955 0.022617789 -0.0085365055 0.000271546
-0.020176493 0.017797586 0.021465814 0.0039189714 -0.027530653 0.010549426 0.028569376 -0.018757459
0.027991267 0.032328155 -0.020105047 0.035170835 -0.024053622 0.0320127 -0.012795832 0.02036243
-0.035497483 -0.013479702 -0.014191777 -0.034470007 -0.014718052 0.024428112 -0.015242684 0.03514411
-0.0023609023 0.029855175 -0.027157951 -0.020286573 -0.005738143 0.017208258 0.029884871 0.032572135
0.0059891497 -0.0015771198 0.008164013 0.011061895 -0.026482103 -0.0051971413 -0.015507511 0.026242694
-0.02759686 -0.017787185 -0.033346165 0.021878885 0.013973896 -0.032399446 -0.007088112 -0.011263397
-0.017405702 -0.026548332 0.016413152 0.0020859276 0.027988812 0.018549593 -0.026609464 -0.0018683147
-0.06849548 0.014588387 0.043159705 -0.02457865 -0.07276208 -0.08319181 -0.022748854 -0.027594605
-0.08509186 -0.062111143 0.004759779 0.025867272 0.017389422 -0.023327684 0.026710004 -0.022119537
0.027786637 -0.025799027 -0.016775614 0.025879256 -0.0007954453 0.008235919 -0.015368664 0.009600624
0.03444941 0.023152176 -0.02722825 0.043016724 -0.0010182521 0.02179232 0.15891273 -0.05448912
-0.041037902 -0.043059338 0.023795843 0.008446551 0.037156507 -0.26205286 -0.12446998 -0.17601414
-0.02341524 0.029711511 0.044144914 0.008355659 0.05955912 0.112046465 0.021669833 -0.007658848
-0.017572058 -0.000780424 0.009733856 -0.032285303 0.006223305 0.02969624 0.07785262 -0.032995522
-0.29908496 -0.24284114 -0.059016105 0.17234972 -0.009498861 0.03315026 -0.24605593 0.10966953
-0.0010888883 -0.30243698 -0.14010127 -0.12827292 -0.07749271 0.05545574 -0.03797156 0.04076126
0.21862698 0.14310749 0.012432826 0.0038955733 0.022135122 0.0026958373 -0.0169127 0.0055132443
0.008673433 0.13478313 0.18991397 -0.091282435 -0.08576032 0.029291557 -0.07335813 -0.22615407
-0.2657061 -0.37915495 -0.1302025 -0.022098787 -0.1912216 -0.19131458 -0.12012748 -0.066971876
-0.05671409 -0.08931249 0.022222623 0.035361238 0.11115348 0.15770099 0.0006992438 -0.016147936
-0.03242516 0.004171344 0.0052958145 0.029839914 -0.025642574 -0.14153676 0.067697614 -0.05151323
0.17559065 -0.018989226 0.28731275 -0.192844 0.029371647 0.008584186 0.025538513 -0.13572378
0.0024068197 0.25522628 0.19271997 -0.04952369 0.1477964 -0.047115568 -0.160146 -0.22504461
0.17159997 0.22821288 0.05207274 -0.023133326 -0.0062611885 0.013868015 0.032242578 0.0132474415
-0.05932193 -0.070314325 0.0276383 0.036952525 0.40549856 0.24636933 0.38939166 0.23316231
0.39204141 0.052017435 -0.014457675 0.014115869 0.061326224 0.16208121 0.3902038 0.18123397
0.46777147 0.07020927 0.11213459 -0.0035760151 0.21830592 0.12050928 0.023353083 -0.024098106
0.0051438366 -0.008022586 -0.009434905 0.00013047943 -0.061637033 0.026715314 -0.10834699 0.28332847
0.1408416 0.2968066 0.19485095 0.14531733 0.17346042 0.22597994 0.09761401 0.3097961
0.19859217 0.18242727 0.11335084 0.09492092 0.07570261 -0.13459064 0.22812994 0.22744875
0.15628205 0.023917641 0.02611716 0.008867561 0.034312505 0.009240315 0.047116697 0.015088828

linear1.bias f4 [16]
00000000: 5c85 60be ce03 1ebe 246e 0abe cb64 163f
00000010: 232b c83d 4505 25be 5f8c 123f c939 1d3f
00000020: 713a 8e3e fb9f f73e f59e d53e 32f1 b73c
00000030: 972a 3e3d fe39 00be a08d 313f f757 733e
-0.21925873 -0.15431139 -0.13518578 0.5874755 0.09773853 -0.16115291 0.5724544 0.614163
0.27778962 0.48364243 0.41722837 0.022453878 0.046427336 -0.12522122 0.6935673 0.23764025

linear2.weight f4 [32, 16]
00000000: 4aab e0be 45df c1be 4974 823d c65f f13e
00000010: c2cd 93bf a141 1abe 0f91 d3bd 235b 663f
00000020: fa63 94be 3063 393f ff03 063f fdda 893e
00000030: f8a9 0a3c 0009 3dbf 71ad 6d3d 964e 6dbe
00000040: 4104 d33e 836b 8cbd d6a8 d73e e191 593e
00000050: aff1 843d d55c 54bf 2c71 2dbe ee58 60be
00000060: af3a 4c3e cb5c c9bd be03 2c3e 489a abbd
00000070: c264 203f af9a 22bf 2ec6 6a3e 4774 803c
00000080: 8bd4 2e3f 11b0 c63d f820 093e ada7 53be
00000090: 1e95 743f 8903 5ebe e670 6cbe 5dbd 1cbf
000000a0: 552f 8d3f 1f31 953e ca9e 9e3e 1ced 7c3e
000000b0: fb8e 99be 281c b4be 48b6 573f e295 553e
000000c0: 8bc2 c33e 8f99 e73e bb58 e1be 6689 093f
000000d0: 3de8 efbe 3260 fdbd 184d 09bf dc98 9c3e
000000e0: b0e9 1e3e 7148 5b3e cecf b93e faf2 b4be
000000f0: cf83 f6be 4021 9d3d d563 6a3f 5617 d9bf
00000100: 3411 403e 2fa5 3e3f 909b 313d 6358 e53e
00000110: ae97 f1be a1f8 47be a177 9f3d 8755 5f3e
00000120: 25a0 0cbe d313 f5be 3981 9abd ca2f 923d
00000130: 0e34 f3be ab2d e13c 5567 0abe 8214 6fbe
00000140: 51f1 013f e721 413f 4490 3c3e 75bc c13e
00000150: 39ab 7e3e 4e51 f2be d74e 0c3f b73d 1d3e
00000160: 5d8a c3bd e650 06be 4ebf 04bf e9bf 4d3f
00000170: 1b63 483e 931e b4be f978 8cbf f76a b8bd
00000180: 071e 6f3f 0f6c 9a3f 5e71 85bd 09c8 86bf
00000190: c1cf 5c3f acdd a23e d78b 19bf 74a0 06bf
000001a0: 3b7a 8d3f 8c45 143f 01d7 c23e d529 4abf
000001b0: d1b2 63bf 9377 b13f ff75 84bd 5c30 18bf
000001c0: b0b1 a7ba ddae 58be 2501 ab3d 31d2 df3d
000001d0: 0054 1dbe b08a 1abe dd7a 913d 0b35 4fbe
000001e0: 15aa aabd ca24 193e 2ce6 b3bd 8016 95bd
000001f0: 43b4 42be 044e 643e 4855 1cbe 88b6 83be
00000200: 5cd0 a43e d7f0 2d3f 62fc 05be c98a 243f
00000210: fc93 86bd 7c81 9abf 0cef f4bd 34c1 c93f
00000220: 9681 7bbe 4d24 85bf 8d06 cf3e 39eb 903e
00000230: 3d98 0e3f 2acd a73e b13a 493f da23 f1be
00000240: f338 b43c 8398 173f c471 f6be 33ff b93e
00000250: 37a1 6e3f 6935 253e bdc5 bfbe 02f0 42be
00000260: 7561 d5be 1333 3abf 89d9 953e 6d33 443d
00000270: e07b 79be 26b1 393f 87ab 6bbe 7463 6b3f
00000280: a560 9c3e c4d0 68bf 4c6f 593f a2f5 b93e
00000290: d683 f93c c824 4b3e ba87 3d3f a6c8 dd3d
000002a0: 6255 d03d 0c0a 813e 6dd1 10bf 159c 0b3e
000002b0: 8cb4 993e c0f8 133e 293e 53bf 0785 683e
000002c0: 675f 8bbe 5acc 3ebf d5ad a13e 5e3b 333e
000002d0: 7670 7abe 3ab3 7bbd 6338 813e 9684 143e
000002e0: 4b4a 12bf 36d9 dbbe 9ad4 903d 63f9 593d
000002f0: 9551 903f 1301 06bf c736 013f 1021 f53e
00000300: e458 cebe 2625 8fbf dba1 b1bc 070c 19be
00000310: 7112 4a3e 2721 98bc 057a a2bd 51b8 d63e
00000320: 3d79 943e b6f3 093e 2be1 d03e cbff 2f3f
00000330: c6f9 e53e 4e19 01bf 0922 cbbe 13f0 b3bc
00000340: 5ec4 823f f984 84bf bbf7 e9ba c2c5 7b3f
00000350: 8536 d43e 01c0 c03d 43aa 1ebf 3a76 353f
00000360: b62e 95be 05ea ab3e 5f98 23bf 15c0 41bc
00000370: a795 8e3f fddf 21bf 2535 8ebf a56e 27be
00000380: e4f0 2e3f be38 e0bc ae25 d2be cf43 33bf
00000390: b1cb 983e 8d75 84bc c572 99bd 382b 2d3f
000003a0: 2989 64bd bda0 6c3f 0bf5 aabe 8f21 963f
000003b0: 68c8 58bf 22c7 e33e 4f22 29bf 784e db3b
000003c0: 9ec6 8d3e 62b9 66bf 5e67 823f e446 67be
000003d0: b2dd 04bf 3cae 07be e5d5 403f 319b 10be
000003e0: 4ee2 d23e c501 083f 9167 b03e a948 1b3e
000003f0: 7ef4 4a3f 321b 39bf fe60 01bf fbaf a1be
-0.43880683 -0.37865654 0.06369836 0.47143382 -1.1547167 -0.15064098 -0.10330402 0.89982814
-0.28982526 0.72416973 0.5234985 0.26924887 0.008463375 -0.7384186 0.058026735 -0.2317451
0.41214183 -0.06856444 0.42121 0.21247055 0.0649141 -0.8295415 -0.16937703 -0.21908924
0.19944261 -0.09832152 0.16798303 -0.08379036 0.62653744 -0.6351728 0.22927162 0.015680445
0.68293065 0.09701551 0.13391483 -0.20669432 0.95540035 -0.21681036 -0.23089942 -0.61226445
1.103007 0.2913904 0.3098052 0.24699825 -0.29991898 -0.35177732 0.84262514 0.20857957
0.38234362 0.45234343 -0.44013008 0.5372528 -0.4685687 -0.123718634 -0.5363326 0.30585372
0.15518832 0.21414353 0.36291355 -0.35341626 -0.48147437 0.076723576 0.9155858 -1.6960247
0.18756562 0.744708 0.043361247 0.44793996 -0.47186035 -0.19528438 0.07786489 0.2180997
-0.13732965 -0.47866687 -0.075441785 0.07138021 -0.47500652 0.027487596 -0.1351598 -0.23347667
0.50758845 0.75442356 0.18414408 0.37839094 0.24870004 -0.47327656 0.548078 0.15355574
-0.09547875 -0.13116798 -0.5185441 0.80370957 0.19569056 -0.35179576 -1.0974418 -0.09004777
0.93405193 1.2064227 -0.06515764 -1.0529796 0.8625451 0.31809747 -0.59979004 -0.5258858
1.1052927 0.5791862 0.3805466 -0.7897008 -0.8894473 1.3864616 -0.064678185 -0.5944879
-0.0012794044 -0.21160455 0.08349828 0.10928763 -0.15364075 -0.15091968 0.071035124 -0.20235078
-0.08333222 0.1495544 -0.08784136 -0.07279682 -0.19014077 0.22295386 -0.15266907 -0.25725198
0.32190216 0.6794562 -0.13084558 0.6427427 -0.065711945 -1.2070765 -0.11959657 1.5762086
-0.24561152 -1.0401703 0.40434685 0.2830446 0.5570105 0.32773715 0.7860518 -0.47097665
0.021999812 0.5921709 -0.4813367 0.36327514 0.93214744 0.16133656 -0.3745555 -0.19036868
-0.41675916 -0.72734183 0.2926753 0.047900606 -0.24363661 0.7253593 -0.23014651 0.9194863
0.30542484 -0.9094355 0.8493545 0.36320215 0.030458372 0.1983825 0.7403523 0.10829286
0.101725355 0.25202978 -0.5656956 0.1363376 0.3002056 0.1445036 -0.82516724 0.22706996
-0.27221224 -0.74530566 0.31577936 0.17503116 -0.24456963 -0.06145022 0.25238332 0.14503703
-0.5714461 -0.42939156 0.070718005 0.05321635 1.1274897 -0.5234539 0.5047421 0.47876787
-0.40302193 -1.1183212 -0.021683624 -0.14945994 0.19733597 -0.018570496 -0.0793343 0.41937497
0.28998747 0.13471875 0.4079679 0.68749684 0.44917125 -0.50429237 -0.39674404 -0.021965062
1.0216177 -1.035308 -0.0017850319 0.9834863 0.41447845 0.09411622 -0.6197855 0.70883524
-0.291372 0.3357698 -0.63904375 -0.011825581 1.113942 -0.63232404 -1.1109968 -0.16350801
0.6833632 -0.027370807 -0.41044372 -0.7002534 0.29842904 -0.016169334 -0.07492594 0.6764407
-0.05579487 0.9243277 -0.33390078 1.1728991 -0.84680796 0.44487864 -0.66067976 0.006692704
0.27690595 -0.9012662 1.0187795 -0.22585636 -0.5190078 -0.13250059 0.7532638 -0.14121701
0.41188282 0.531277 0.34454015 0.15164436 0.79279315 -0.7230712 -0.50538623 -0.31579575

linear2.bias f4 [32]
00000000: 9305 ce3e 40c4 ae3d ad9d 1bbf 2267 893d
00000010: 5ca1 3d3d 83cb d13e ef81 3b3e a342 1bbe
00000020: 707d 313e 992e c6be 44d3 e63e 514c 823c
00000030: b7ae 01be 971a 8b3c 8ad5 de3e fe5e 2e3d
00000040: ba0c 123f c821 2f3f e982 56be a2d5 76bc
00000050: 3c49 363f a95e a4be 37ca f53d 3c53 69bd
00000060: 4047 3fbd ba7d e33e c5da 18be 2f33 95be
00000070: 2c6f 90bd 8244 8abe 0204 b93e 95d5 32be
0.40238628 0.085335255 -0.6078747 0.06709124 0.046296462 0.4097558 0.18311284 -0.15162139
0.17333007 -0.38707426 0.45083058 0.015905531 -0.12664305 0.016980452 0.43522292 0.04257106
0.5705067 0.6841092 -0.20948376 -0.0150655825 0.71205497 -0.3210347 0.1200146 -0.056964144
-0.04669881 0.4443186 -0.14927204 -0.29140612 -0.07052454 -0.27005392 0.3613587 -0.17464288

linear3.weight f4 [10, 32]
00000000: b101 0abd 16ab 053d 33b1 f03e a883 533d
00000010: 37df e03c 0725 c2be 2195 eabe 2d44 e03d
00000020: a661 59bf b730 8b3e 16d6 cbbd 0796 103e
00000030: 5506 023f e36a d03e c03a 8fbf 5bef 543e
00000040: f0ca 49be 2d6d 71bf 6d60 433f da40 4e3f
00000050: dec1 2c3f 728e 9f3c d2c5 90bd d44c 5f3d
00000060: e138 5c3f 9481 403d b76f b5be c501 69bf
00000070: aaf2 8b3f 421b c43d ee9a 0cbf dcc6 4d3f
00000080: 9070 1d3e a070 80bc a805 9a3c e0ed 233f
00000090: 290e 563e 06e6 0a3f 2f4a 843f f736 223e
000000a0: ae1f d9be c77e 19be caee 46be f955 debe
000000b0: 3da3 62bd 7e5d 533f 5c97 2b3f b301 4d3c
000000c0: 2216 563f 843c 0dbf 2d3c 9abe ee10 58be
000000d0: eb46 b0be 4296 273f 98f2 38be 0c0b eabd
000000e0: 0460 acbe 613e 863e 3acb 1abf 3f2a 80be
000000f0: 9072 733d 60d5 fbbd 8b87 af3c 8561 473f
00000100: 6f89 3ebf 116c 91bd 7872 103f ef6f ac3e
00000110: 028e 81be 364e 96bf 56f8 cd3f 5e61 76ba
00000120: 7753 2dbf db80 23be 002f 523f 8d45 92be
00000130: f13c 583e 73f6 0fbf 874c 86bd 85ce bbbf
00000140: 09c8 6d3f 9b47 673f a06e fd3e 8f0e fd3e
00000150: 1976 083f 2337 7bbf 19f4 8abd a038 2f3e
00000160: 936f 25be 4fe0 aabe 54fd d83e 1c14 39be
00000170: 878c 523e 6838 4cbd f305 483d d2f4 073f
00000180: 2c2f fb3e 91b5 b63e d533 7bbc 66ab 93bf
00000190: a796 2dbf 848b 983e 1360 403d 89d2 743d
000001a0: 0c36 3e3f 19c7 f33e 3fc7 df3e a8ce 9bbf
000001b0: 16b6 8ebd 6872 1dbf 6188 823f f23e a63e
000001c0: c004 693e 634d 1a3d 02d7 d03d c203 693d
000001d0: ab5f 01bf d6dc 843e 4ccc 663d 2331 de3d
000001e0: c52c a63e 7f33 a3bf aa77 d93e 2d34 683f
000001f0: 0ed1 3fbf 6863 cabd 6d20 93bf 2d0f adbe
00000200: da36 193f bcaf 643e 3f41 a1bf 7451 73be
00000210: 13a1 2d3d 6ca6 2fbf 15cf 67bf ce94 dd3d
00000220: 6bb1 0a3f 24af 7bbf 21ed a7bd bd95 3a3f
00000230: e841 86bd 0c7d b9bf 1f53 5b3e df79 d8bd
00000240: 9e4b 61bf f255 1b3f 2f5d 81bf 9b83 103e
00000250: 8c63 723f d381 903f e837 1f3d 8ad1 143c
00000260: a15e 4a3e 0b50 063f 3820 a73e 285f 4dbf
00000270: eb6b 96bd 502e 26bd c3f2 df3d 9485 b73e
00000280: 45cc fc3e b9c9 543d ec74 c63d 6626 4abf
00000290: 7d25 083e 4810 fd3e bfa5 c03d f8f9 223e
000002a0: 6675 8e3f 5b3a 1bbf 9563 573f 7d76 e8bd
000002b0: 8a82 df3d 074a 923f ceb3 723e f235 643f
000002c0: cfb7 de3e 7c44 31bf 17e1 c4be 739b 75be
000002d0: df4c 24bf 209e 92bf 14f3 56bd 3197 c5bd
000002e0: 0dec c3bf 40f0 053e ec85 e1be 67c5 a93e
000002f0: 2328 50bf e33f 96bd b8fc 9e3e 1f0a bd3e
00000300: 57f4 2f3f e18d 22bb eded ecbd 64f2 9b3f
00000310: 5fd0 9fbe 0770 553f 6377 72bf 735e ba3c
00000320: ec60 63bf 473f 2dbf e5f7 033e f6c1 0b3f
00000330: 4740 8bbe f137 1e3f b9bf 71bf a8a9 463e
00000340: 6850 5fbe ace4 c43e ce39 0f3f 788a 13bf
00000350: 66e5 e83e 11ea 3bbf 727a 313d 990f af3b
00000360: 677d a43e adfe 4f3f 075f bcbf 949c e3be
00000370: 910f 143e b29a 05be 1586 2cbf fa48 0e3f
00000380: cf48 1cbf 9893 b33e 8541 753f 9165 663e
00000390: 7ed5 d83d e79e 18bf 68ca 633f b19e 4a3d
000003a0: 58f6 393e ba66 9b3e c5ec 8dbf af1c ebbd
000003b0: 2270 ac3d 41aa b4bd 59b0 b9be 30b2 043f
000003c0: 7f50 91be 8a17 85be b438 1fbf 17c6 45bf
000003d0: a288 98bf 3a85 0d3f efdd bebd cec1 b33d
000003e0: cecb c93d f232 e13d 24fb 1c3f 288c a93e
000003f0: 595b 153e da02 9ebd d876 383f 471f 16bf
-0.03369302 0.032633863 0.47010192 0.05163923 0.027450187 -0.37918875 -0.458169 0.109505035
-0.84914625 0.27185604 -0.09952943 0.14119731 0.5079091 0.40706548 -1.1189804 0.20794432
-0.19706321 -0.94307214 0.7631901 0.80567706 0.6748332 0.019477103 -0.07068981 0.05451663
0.8602429 0.046998575 -0.35436794 -0.91018325 1.093343 0.095755115 -0.54923904 0.8038156
0.1537497 -0.015678704 0.018801525 0.64034843 0.20903839 0.5425724 1.0335139 0.1584128
-0.42406982 -0.14989768 -0.19427028 -0.43424967 -0.055331457 0.8256453 0.6702783 0.012512612
0.8362752 -0.55170465 -0.30124035 -0.21100208 -0.34429106 0.6546365 -0.18061292 -0.11427888
-0.33667004 0.26219466 -0.6046635 -0.2503223 0.059435427 -0.122965574 0.021426937 0.7788318
-0.7442846 -0.0710069 0.56424665 0.3367915 -0.25303656 -1.1742618 1.6091411 -0.0009398664
-0.6770548 -0.15967123 0.82102966 -0.28568688 0.21116997 -0.56235427 -0.06557565 -1.46724
0.92883354 0.90343636 0.49498463 0.4942517 0.533052 -0.98131007 -0.06784839 0.17111444
-0.16155843 -0.3337426 0.42380774 -0.18074077 0.2056142 -0.04985848 0.0488338 0.5310794
0.49059427 0.356854 -0.015332182 -1.1536682 -0.67808 0.29793942 0.046966624 0.059771094
0.7430122 0.47612837 0.437067 -1.2172441 -0.06968324 -0.61502695 1.019787 0.32469898
0.22755718 0.037671458 0.101972595 0.05688835 -0.505366 0.25949734 0.056347176 0.10849216
0.3245603 -1.275009 0.4247411 0.90704614 -0.7492837 -0.098822415 -1.149427 -0.3380064
0.5984932 0.22332662 -1.2598037 -0.2376154 0.04238994 -0.68613315 -0.9055036 0.10819398
0.5417697 -0.9831412 -0.081995256 0.7288473 -0.06555539 -1.4491286 0.21418427 -0.1057012
-0.8800601 0.6067802 -1.0106562 0.14112704 0.94683146 1.1289619 0.038871676 0.009083161
0.1976266 0.52465886 0.32641768 -0.8022332 -0.073448025 -0.04057151 0.10934975 0.358441
0.49374595 0.05195019 0.0969027 -0.7896484 0.1329555 0.49426484 0.094066136 0.15915668
1.1129577 -0.6063592 0.84136325 -0.11350725 0.1091357 1.1428841 0.23701403 0.89144814
0.4349961 -0.69245124 -0.3845298 -0.2398508 -0.64179796 -1.1454506 -0.05247791 -0.09647978
-1.5306412 0.1307993 -0.44047487 0.3315842 -0.81311244 -0.07336404 0.31052184 0.36921784
0.6873221 -0.0024803805 -0.11568818 1.2183347 -0.31213662 0.83374065 -0.9471342 0.022750115
-0.88819766 -0.6767468 0.12887533 0.54592836 -0.27197477 0.6180411 -0.9443317 0.19400656
-0.21808016 0.38455713 0.5594758 -0.5763316 0.45487517 -0.7340403 0.043329664 0.0053424356
0.32126924 0.8124798 -1.47165 -0.44455397 0.14459063 -0.13047293 -0.6739209 0.55580103
-0.610486 0.35073543 0.958031 0.22499682 0.105875954 -0.59617466 0.8898072 0.049467746
0.18160379 0.30351812 -1.1087881 -0.1148008 0.08419825 -0.08821536 -0.36267355 0.5183439
-0.28381726 -0.2599452 -0.621959 -0.77255386 -1.1916697 0.5528141 -0.09319674 0.087772
0.09853326 0.10996045 0.6132071 0.33114743 0.14585628 -0.07715388 0.7205634 -0.58641475

linear3.bias f4 [10]
00000000: dc77 d0be 75f7 d73e 4b23 49bd 902a 063e
00000010: f32d 1c3e fdbc c03e 7020 81be 770f 463d
00000020: e749 54be 1bc4 cdbd
-0.40716445 0.42180982 -0.049105924 0.13102174 0.15251903 0.37644187 -0.2522006 0.048354592
-0.20731317 -0.1004717
